…
steps_per_epoch: 200
batch_size: 4
accum_iter: 2
lr: 0.0003
warmup_epochs: 5
no_decay: false
weight_decay: 0.05
clip_grad: 1.0
metrics:
- acc
- f1
cv_metric: acc
early_stopping: true
amp: true
device: cuda
seed: 4466
debug: false
wandb: false
wandb_entity: null
wandb_project: fMRI-fm-eval
model: flat_mae
dataset: aabc_sex
distributed: false

creating frozen backbone model: flat_mae
backbone:
MaskedEncoderWrapper(
  (model): MaskedEncoder(
    class_token=True, reg_tokens=0, no_embed_class=True, mask_drop_scale=False
    (patchify): Patchify3D((16, 224, 560), (4, 16, 16), in_chans=1)
    (patch_embed): Linear(in_features=1024, out_features=768, bias=True)
    (pos_embed): SeparablePosEmbed(768, (4, 14, 35))
    (blocks): ModuleList(
      (0-11): 12 x Block(
        (norm1): LayerNorm((768,), eps=1e-06, elementwise_affine=True)
        (attn): Attention(
          num_heads=12
          (q): Linear(in_features=768, out_features=768, bias=True)
          (k): Linear(in_features=768, out_features=768, bias=True)
          (v): Linear(in_features=768, out_features=768, bias=True)
          (proj): Linear(in_features=768, out_features=768, bias=True)
        )
        (drop_path1): Identity()
        (norm2): LayerNorm((768,), eps=1e-06, elementwise_affine=True)
        (mlp): Mlp(
          (fc1): Linear(in_features=768, out_features=3072, bias=True)
          (act): GELU(approximate='none')
          (fc2): Linear(in_features=3072, out_features=768, bias=True)
        )
        (drop_path2): Identity()
      )
    )
    (norm): LayerNorm((768,), eps=1e-06, elementwise_affine=True)
  )
)
backbone params: 86.2M
creating dataset: aabc_sex (flat)
train (n=471):
HFDataset(
    dataset=Dataset({
    features: ['sub', 'visit', 'mod', 'task', 'path', 'start', 'end', 'tr', 'segment', 'bold', 'mean', 'std'],
    num_rows: 471
}),
    labels=[0 1],
    counts=[269 202]
)

validation (n=58):
HFDataset(
    dataset=Dataset({
    features: ['sub', 'visit', 'mod', 'task', 'path', 'start', 'end', 'tr', 'segment', 'bold', 'mean', 'std'],
…
