…
batch_size: 32
accum_iter: 2
lr: 0.0003
warmup_epochs: 5
no_decay: false
weight_decay: 0.05
clip_grad: 1.0
metrics:
- acc
- f1
cv_metric: acc
early_stopping: true
amp: true
device: cuda
seed: 4466
debug: false
wandb: false
wandb_entity: null
wandb_project: fMRI-fm-eval
model: schaefer400_mae
dataset: hcpya_task21
distributed: false

creating frozen backbone model: schaefer400_mae
backbone:
MaskedEncoderWrapper(
  (model): MaskedEncoder(
    class_token=True, reg_tokens=0, no_embed_class=True, mask_drop_scale=False
    (patchify): Patchify3D((16, 400, 1), (4, 1, 1), in_chans=1)
    (patch_embed): Linear(in_features=4, out_features=768, bias=True)
    (pos_embed): SeparablePosEmbed(768, (4, 400, 1))
    (blocks): ModuleList(
      (0-11): 12 x Block(
        (norm1): LayerNorm((768,), eps=1e-06, elementwise_affine=True)
        (attn): Attention(
          num_heads=12
          (q): Linear(in_features=768, out_features=768, bias=True)
          (k): Linear(in_features=768, out_features=768, bias=True)
          (v): Linear(in_features=768, out_features=768, bias=True)
          (proj): Linear(in_features=768, out_features=768, bias=True)
        )
        (drop_path1): Identity()
        (norm2): LayerNorm((768,), eps=1e-06, elementwise_affine=True)
        (mlp): Mlp(
          (fc1): Linear(in_features=768, out_features=3072, bias=True)
          (act): GELU(approximate='none')
          (fc2): Linear(in_features=3072, out_features=768, bias=True)
        )
        (drop_path2): Identity()
      )
    )
    (norm): LayerNorm((768,), eps=1e-06, elementwise_affine=True)
  )
)
backbone params: 85.4M
creating dataset: hcpya_task21 (schaefer400)
train (n=18999):
HFDataset(
    dataset=Dataset({
    features: ['sub', 'task', 'cond', 'cond_id', 'path', 'start', 'end', 'n_frames', 'tr', 'bold', 'mean', 'std'],
    num_rows: 18999
}),
    labels=[ 0  1  2  3  4  5  6  7  8  9 10 11 12 13 14 15 16 17 18 19 20],
    counts=[ 832 1248 3201 1660  832  832  832  832  832 1248 1247 1243  832  416
…
